models/elevation.final/weights.npy (npy, 4952 bytes, 1 tensors)

array f8 [1, 29, 21]
0	0x0000000000000000	0.0
1	0x0000000000000000	0.0
2	0x0000000000000000	0.0
3	0x0000000000000000	0.0
4	0x0000000000000000	0.0
5	0x0000000000000000	0.0
6	0x0000000000000000	0.0
7	0x0000000000000000	0.0
8	0x0000000000000000	0.0
9	0x0000000000000000	0.0
10	0x0000000000000000	0.0
11	0x0000000000000000	0.0
12	0x0000000000000000	0.0
13	0x0000000000000000	0.0
14	0x0000000000000000	0.0
15	0x0000000000000000	0.0
16	0x0000000000000000	0.0
17	0x0000000000000000	0.0
18	0x0000000000000000	0.0
19	0x0000000000000000	0.0
20	0x0000000000000000	0.0
21	0x0000000000000000	0.0
22	0x0000000000000000	0.0
23	0x0000000000000000	0.0
24	0x0000000000000000	0.0
25	0x0000000000000000	0.0
26	0x0000000000000000	0.0
27	0x0000000000000000	0.0
28	0x0000000000000000	0.0
29	0x0000000000000000	0.0
30	0x0000000000000000	0.0
31	0x0000000000000000	0.0
32	0x0000000000000000	0.0
33	0x0000000000000000	0.0
34	0x0000000000000000	0.0
35	0x0000000000000000	0.0
36	0x0000000000000000	0.0
37	0x0000000000000000	0.0
38	0x0000000000000000	0.0
39	0x0000000000000000	0.0
40	0x0000000000000000	0.0
41	0x0000000000000000	0.0
42	0x0000000000000000	0.0
43	0x0000000000000000	0.0
44	0x0000000000000000	0.0
45	0x0000000000000000	0.0
46	0x0000000000000000	0.0
47	0x0000000000000000	0.0
48	0x0000000000000000	0.0
49	0x0000000000000000	0.0
50	0x0000000000000000	0.0
51	0x0000000000000000	0.0
52	0x0000000000000000	0.0
53	0x0000000000000000	0.0
54	0x0000000000000000	0.0
55	0x0000000000000000	0.0
56	0x0000000000000000	0.0
57	0x0000000000000000	0.0
58	0x0000000000000000	0.0
59	0x0000000000000000	0.0
60	0x0000000000000000	0.0
61	0x0000000000000000	0.0
62	0x0000000000000000	0.0
63	0x0000000000000000	0.0
64	0x0000000000000000	0.0
65	0x0000000000000000	0.0
66	0x0000000000000000	0.0
67	0x0000000000000000	0.0
68	0x0000000000000000	0.0
69	0x0000000000000000	0.0
70	0x0000000000000000	0.0
71	0x0000000000000000	0.0
72	0x0000000000000000	0.0
73	0x0000000000000000	0.0
74	0x0000000000000000	0.0
75	0x0000000000000000	0.0
76	0x0000000000000000	0.0
77	0x0000000000000000	0.0
78	0x0000000000000000	0.0
79	0x0000000000000000	0.0
80	0x0000000000000000	0.0
81	0x0000000000000000	0.0
82	0x0000000000000000	0.0
83	0x0000000000000000	0.0
84	0x0000000000000000	0.0
85	0x0000000000000000	0.0
86	0x0000000000000000	0.0
87	0x0000000000000000	0.0
88	0x0000000000000000	0.0
89	0x0000000000000000	0.0
90	0x0000000000000000	0.0
91	0x0000000000000000	0.0
92	0x0000000000000000	0.0
93	0x0000000000000000	0.0
94	0x0000000000000000	0.0
95	0x0000000000000000	0.0
96	0x0000000000000000	0.0
97	0x0000000000000000	0.0
98	0x0000000000000000	0.0
99	0x0000000000000000	0.0
100	0x0000000000000000	0.0
101	0x0000000000000000	0.0
102	0x0000000000000000	0.0
103	0x0000000000000000	0.0
104	0x0000000000000000	0.0
105	0xc02655d64cd8b36c	-11.16765060563349
106	0xc031303ac3c9cf1f	-17.18839667965869
107	0xc03991709bddb03a	-25.56812452471079
108	0xc03b3e61bc14287a	-27.243678812905706
109	0xc049851980b71f25	-51.039840783514855
110	0xc046d8a04f4c23d4	-45.6923922654893
111	0xc042d2dc685aa06d	-37.64735130715494
112	0xc04bd0101242010c	-55.62549045775276
113	0xc039eae9f7f9e807	-25.91763257838468
114	0xc04cf187631a3532	-57.886944186970496
115	0xc0426e5b344af8f4	-36.86215833340421
116	0xc023a9e4718352b5	-9.831821009903573
117	0xc0491a537af7765a	-50.20567261775132
118	0xc04a6882763cc247	-52.81648138014548
119	0xc03719d69a22f5fb	-23.10093081811463
120	0xc04d4fc6ee600c03	-58.623258397004996
121	0xc0356d65ce65d6ae	-21.42733468996328
122	0xc0368b0d6d3fbd3c	-22.54317362600453
123	0xc03883d5471e6c00	-24.514973111083236
124	0xc02f21a2bc1a4492	-15.565694692808652
125	0xc01388cae93fd07a	-4.883586544532699
126	0xc0159f8e8550f1f9	-5.405817111077789
127	0xc028b5c22ceaf97d	-12.354997066195887
128	0xc03136987ecc85c9	-17.21326439374187
129	0xc028fe2921763bec	-12.496407552416677
130	0xc047003b44eb91d3	-46.00180875303672
131	0xc042f4c6d0ee1aca	-37.91231738687709
132	0xc040f6647d5faf6a	-33.92494170353059
133	0xc0420db754847aaa	-36.10715729206761
134	0x3fe82e57eee3e800	0.7556571641755454
135	0xc04382a2ef835ea2	-39.02059739985022
136	0xc03343fbeac860b0	-19.26556270019563
137	0xc01397fc6c58a05c	-4.898423855695082
138	0xc018382d2759ce8e	-6.054859747749687
139	0xc03bfd2bf6fd6ed2	-27.988952099679246
140	0xc035580172791261	-21.34377208190779
141	0xc036b7bc5c5b083a	-22.71771790716614
142	0xc038043cbb46f09a	-24.016551689929294
143	0xc037a581852bf7e6	-23.646507571443998
144	0xc03305f1b5665301	-19.023219430428984
145	0xc0270a38d1d9f99d	-11.519964750154765
146	0xbfef2aa401729d88	-0.9739551571155269
147	0x0000000000000000	0.0
148	0xbfe974ff7fddcaba	-0.7955319878950242
149	0xc023587f3cf75816	-9.672845750039453
150	0xbfc22973ac4a1fc0	-0.14189000999999557
151	0xc038242ef268970b	-24.14134135297267
152	0xc031ed44a91a2ef5	-17.92682892693752
153	0xc01981bf95ab00b8	-6.376707399904426
154	0xc031a3f0635c2bea	-17.64038678169519
155	0xc01469de405194f2	-5.103386883715972
156	0xc03b6c8da993ad3b	-27.424036596826436
157	0xc018fb9be853ecce	-6.245711927530648
158	0x403409b21d250148	20.037874051603723
159	0xc018d0f2c981f4de	-6.204051159436146
160	0x4005f67e693cd4f2	2.745358297509136
161	0x400385ac42fb8cea	2.4402699692742447
162	0xc03678d95106f366	-22.472065986821143
163	0xc026177f97e9f8ca	-11.045895335494055
164	0xc010b4be79b7e712	-4.1765078562255145
165	0xc0151ac446816f16	-5.276139356279392
166	0xbff9665fb27f7cee	-1.5874936077669264
167	0xc00314f4b49ea6ca	-2.3852323637882806
168	0x0000000000000000	0.0
169	0xbfe4a79d80231f74	-0.6454608442954695
170	0x40103e2f0b6140ca	4.060726335345132
171	0xbff41ea17175c974	-1.2574781829867705
172	0x40131eda39d4f043	4.780129340764748
173	0xc00b07611b5d0557	-3.3786031854403222
174	0x40206ec6226dd6ea	8.21635539618315
175	0xc015d0e53b6df728	-5.45399945124317
176	0x3f97b8330065cb80	0.023163601779241372
177	0x401f91952d5fa796	7.892170628512664
178	0x0000000000000000	0.0
179	0x4017d6f737441082	5.959927428750349
180	0x402ad5ac58ff7f9d	13.417330533207684
181	0x4024360919289f19	10.105538164337803
182	0xc0041ae29ab30538	-2.5131275258906065
183	0xc0259221a6a62e70	-10.785412986551108
184	0xc01275f12052fc4a	-4.615177636208566
185	0xc013ef4167d91f85	-4.983647940280098
186	0xc014c7ea33bd5604	-5.195229347640183
187	0xbfb5acf8bdca1878	-0.08467058785945081
188	0x0000000000000000	0.0
189	0x0000000000000000	0.0
190	0x3fcc9be893494054	0.22350794975000332
191	0x3fdabcc6684ecee8	0.41777191339791253
192	0xbfeb2a510c620ddf	-0.8489155999999943
193	0x402f144c311e7a23	15.539643797846173
194	0x402dbab1f992ef55	14.864639090715778
195	0x4036a5ec31bc9780	22.648135288756293
196	0xbfff18e9b4b2deaf	-1.9435822542708754
197	0x3fdf27eaf205331c	0.486811386440239
198	0x40332132f46f82a8	19.129683758949483
199	0x3feace1915601f48	0.8376584451188842
200	0x0000000000000000	0.0
201	0x4033f8aab22dea89	19.971354614458082
202	0x0000000000000000	0.0
203	0x3fe0a60b85c950c8	0.5202691662803085
204	0xc02486b3ec3ea504	-10.263091452261968
205	0xc00ac4da36f909cd	-3.3461193365812734
206	0xc015bf6715d63d6f	-5.436916676713152
207	0xc00e6d5d9bc324de	-3.8034012001922823
208	0xc014c3d3178ccdae	-5.191234939545593
209	0xc003fe842e4c3653	-2.4992755524643058
210	0x0000000000000000	0.0
211	0x0000000000000000	0.0
212	0xbfbca9d508392c60	-0.11196643305554366
213	0x0000000000000000	0.0
214	0x40349214dd6d7c2e	20.570630873899226
215	0x4032e586e6573c6a	18.896589657113886
216	0x4017bf4dab066be6	5.9368197176617965
217	0x402738a82e8acf1b	11.610658125347575
218	0x3fe42f7f94ad42a8	0.630798139938709
219	0x4033d52f48d5c940	19.832752754396324
220	0xbfe21a81be1844f6	-0.5657356941975695
221	0x4000a25cfdd3ec9a	2.0792789297389165
222	0x40327c5a3687744e	18.48575154120436
223	0x0000000000000000	0.0
224	0xc023262ba409a3b3	-9.574551702667895
225	0xc02401220c44f86c	-10.002212890071142
226	0xc01dd5336dfeae87	-7.458204001111546
227	0xc018d00dca272096	-6.203177603376522
228	0xc00389f80376240c	-2.4423675795010293
229	0xc019c0d40c96a8b9	-6.438308903403759
230	0xc0043fedc6811965	-2.531215239348216
231	0x0000000000000000	0.0
232	0xbfd0b661f0780763	-0.2611317489937532
233	0x3ff8f6eacb37635e	1.5602825105799734
234	0xbfbdbf9251a6babd	-0.11620439999999639
235	0x40321552a3cbd9fe	18.083292233723107
236	0x402fff0b4941c2fe	15.998132981565046
237	0xc0269391578d0597	-11.288218246426181
238	0xc02181474be951ae	-8.752497074347811
239	0xc01e7776c49a601e	-7.616664001390772
240	0x401f4466387e6492	7.816796190943153
241	0x401d1795b391d43d	7.2730320031888
242	0xc016d2cef6e44234	-5.705867631608772
243	0x4008286f92a616fc	3.019744058316858
244	0x403110b0371f0207	17.065188832350056
245	0xc028afb33c8010c6	-12.343164339669226
246	0xc02adcadfa61c935	-13.431014847218288
247	0xc0321b4683494ce2	-18.106544690509402
248	0xc0347737563edc87	-20.465688124033957
249	0xc03248f574866e65	-18.284995348758816
250	0xc02fcc757bf3530d	-15.8993338331725
251	0xc02f10b6cfc10e6e	-15.53264474136014
252	0x0000000000000000	0.0
253	0x3ff29ff90e0be291	1.1640558766067992
254	0xc00705cc7486c667	-2.877831373560912
255	0xbfe705f06a0ae0a4	-0.7194749899999988
